Data/trained-model-theano.npz (npz, 80520 bytes, 3 tensors)

U f8 [50, 75]
0	0xbfb06faa03d9927b	-0.064203859271922
1	0x3fb0a7514d66112a	0.0650530637704533
2	0xbfb1223de673780d	-0.06692873836752274
3	0x3faeac865f146b68	0.059910010439316264
4	0xbfa12f262f87289a	-0.033562844564202624
5	0x3f94b974da9c4f08	0.020238710253649678
6	0xbf9efb7eca9b74d4	-0.030256253353276488
7	0x3fb39800715e5e9c	0.07653811233319135
8	0xbfa34521db22122e	-0.03763681220974423
9	0xbfb8f5a701fe8b67	-0.09749835776032754
10	0x3fafe78dd7fcfa14	0.06231349240851017
11	0xbfab4bc44f213c17	-0.053312430056955566
12	0x3fbd83fc6c4a4e76	0.11529519695096177
13	0xbfb9522516f220f3	-0.09890968141747063
14	0xbfa39cb1b5de3b48	-0.03830485673017009
15	0xbfb932a71bf60e3e	-0.09842914993901616
16	0xbfa8a5feb30b9b92	-0.0481414407311639
17	0xbf98dff3e7f48910	-0.024291811973975064
18	0x3fb6de1174041e02	0.08932599146293543
19	0x3f853a80fa501f10	0.010365493430085887
20	0xbf89091ef867e0a8	-0.012224428134672685
21	0x3f7a08994fcf4c90	0.006355856775331806
22	0xbfa1fdf31025f06c	-0.035140605660644336
23	0x3fb81576318692ae	0.09407747944949094
24	0xbf7e4f1ef5576420	-0.007399674349891888
25	0x3fbc638a3980f6ec	0.11089385894680576
26	0x3f1345a877ae5800	7.351723426859968e-05
27	0xbfad9303970bb3f7	-0.05776225298709641
28	0x3fa3b7ce7eb79278	0.03851170822944011
29	0xbfb93235b7e7537c	-0.09842239131769576
30	0xbf81179774b2f4e8	-0.008345778702614173
31	0x3fb0f3b4033a888e	0.06621861532997483
32	0x3f94b2c416253fb8	0.020213188029913204
33	0xbfbc208cb526adfe	-0.109871668077794
34	0xbfb1d1f28f056e45	-0.06960979453781942
35	0x3fa49aa2631715f0	0.040242266269654325
36	0x3fb879ef92e2c5a8	0.09561059318618581
37	0x3fa5e03d46a5f728	0.04272643554121053
38	0xbfaf4a5663a481b6	-0.06111402479496368
39	0xbfa655bcddfff822	-0.04362287721595261
40	0x3fab4814fe216b68	0.05328431703738695
41	0x3f8646ae68f04fd0	0.010877001359439392
42	0xbfaef993f79bc6ef	-0.06049787900509595
43	0x3fb19d3e39d3be26	0.06880558883471419
44	0xbfa90d3a17adcc2a	-0.0489290384201911
45	0x3f91ba6976337e98	0.017312667693544087
46	0xbfbc97e59a9bdb26	-0.11169276260976044
47	0x3faa4ab9b44a59b8	0.05135135961352283
48	0x3f8bb2420d367a50	0.013523593929503225
49	0xbfb83a098b2e55f9	-0.09463557861302964
50	0xbfbd1914f1cc0bef	-0.11366396811722244
51	0xbf7f04334118b200	-0.007572365009349102
52	0xbf77b8621be50fc0	-0.0057910759335903506
53	0xbfa68a10f9a4c4ae	-0.04402211234481378
54	0xbf6286fbdda264c0	-0.002261630940733811
55	0x3fbae305340da68e	0.10502655526002
56	0x3fbbf959846c0f44	0.10927352412187213
57	0xbfba6d357579692f	-0.10322889440559345
58	0x3fbd24f0a7c0e494	0.11384491057914864
59	0xbfb702afffa2055a	-0.08988475791013198
60	0x3fa2835cf6f494c0	0.036158471246645174
61	0x3fbbf492bd4d0ad2	0.10920064088444839
62	0xbfad9c152aa1e87e	-0.05783144135871597
63	0x3fb96d41dee25af8	0.09932338420399478
64	0x3fb21e9929dd7930	0.0707793929300109
65	0xbfb7f55e3729e804	-0.09358776900072036
66	0x3fa0ca45c64595dc	0.032793217137434744
67	0xbfae8f12ce908e1b	-0.05968531390706407
68	0xbf9e97a9d15dd158	-0.029875424770083953
69	0xbfbb34e0ca60bbea	-0.1062756055914488
70	0x3f77c9635ce18370	0.005807293067932359
71	0x3fbb3e12d1a5418e	0.106415916617385
72	0x3f706585cd32baf0	0.004003069555593028
73	0xbfaa4fa77cccbfd2	-0.0513889636844166
74	0x3fa9699db54cc350	0.04963391149647711
75	0xbfb7aae51a0a5b21	-0.092451399667294
76	0x3f8125f6e498e038	0.008373192645294222
77	0xbfbd3b97d8a15faa	-0.11419056929423613
78	0x3f99c2f262b48508	0.025157725595936348
79	0xbfa82fcfc3453608	-0.047239773356164305
80	0x3fb00571eabe2bd2	0.06258308392550241
81	0x3f861c907b665ae0	0.010796669736732267
82	0x3fb98db10bb9cbb2	0.09981829201005502
83	0xbfb3dcad01ec2a94	-0.0775859956449188
84	0xbf9ea291e6545aa8	-0.029917030032346276
85	0x3fb1b7ca3ba13874	0.06921066242031931
86	0x3fb6508ab51fcd9c	0.08716647073725031
87	0xbfbbeee5e0835b6d	-0.10911404353406136
88	0x3fb6ebda7e014072	0.08953633858004809
89	0x3f7d8ab6e2cdd810	0.0072123664839321006
90	0xbfb49ef8bec5b44a	-0.08055071504141256
91	0xbfad13a1d8b6e008	-0.05679040689886966
92	0xbfb79ea2b1fac6e8	-0.09226433606343287
93	0x3fb8faeff356343a	0.09757899943197482
94	0xbfb9c545ebbba931	-0.10066639905167986
95	0xbfb8664fec5bb88b	-0.0953111602827638
96	0x3f778b8ff4985820	0.005748331380820232
97	0x3faa89362cbd4f68	0.05182809158455265
98	0x3fb0f95802f31f3a	0.06630468437208217
99	0x3fa00c87ed99e168	0.03134560370830536
100	0xbf8da21ff0614150	-0.014469384692490067
101	0x3fb660fce522882e	0.08741741747010742
102	0x3fb05993fd466d20	0.06386685307954965
103	0xbfb90ab04fbc3b01	-0.09781934687292095
104	0x3fa3aec73f86a24c	0.03844282770598237
105	0xbfa09e21dd61dc84	-0.032456453584864625
106	0xbfb263559bad78f2	-0.07182822275851544
107	0x3f937ca7eb11da60	0.019030212137716496
108	0xbfb0b910fd04dd9b	-0.06532388856145703
109	0x3fb2e202df2885f0	0.07376115749550372
110	0xbf7287929d014e80	-0.004523823459823384
111	0x3f9a8c83b7f9cd38	0.025926645378104157
112	0x3fb23291f8e01cce	0.0710841400724462
113	0xbfb31fc218e3f56b	-0.07470334155728657
114	0xbfa0e0e0a12e7786	-0.03296567885921235
115	0x3f7bfa5da69774f0	0.006830564330326569
116	0xbfb78bcab2aa0464	-0.0919768034164164
117	0xbfba69b5b71a4638	-0.10317550392417096
118	0xbfa9c266dc849e86	-0.05031129304762509
119	0xbfa39b91cf36ee4a	-0.03829627661204123
120	0x3fbcba1b616a8d7a	0.11221476677251543
121	0xbfb378efa0a97e10	-0.07606408760465677
122	0x3fb32518b3513218	0.07478479745731936
123	0xbfae1db33fa19b39	-0.05882034446476898
124	0xbf84eaf5ae114828	-0.01021377503835559
125	0xbf7bb01224d60530	-0.006759711145947464
126	0xbf6a7b503a168ce0	-0.0032326285297173823
127	0xbf84d527443434d8	-0.010172182816427996
128	0xbfb05de7f7834016	-0.06393289368429608
129	0xbfb33e0509318728	-0.07516509508562008
130	0x3fbb4da5dbd0face	0.10665356270417733
131	0x3fbd52abbfae7092	0.11454270772668654
132	0x3f8c7cd349b9f710	0.013909960448696107
133	0xbfb5e1020f2b3238	-0.08546460028009839
134	0xbf9f1978356cbb50	-0.03037059618071264
135	0xbfa4aa6ede259bce	-0.04036280118707901
136	0x3fb76d1b8d26fcd0	0.09150860019780116
137	0x3fb3c85ad369cf84	0.07727592145402978
138	0x3f902c81fa9d3b00	0.015794783517146804
139	0x3f9b08b84e32d000	0.026400451443535644
140	0xbfa5b7f8b6bab67c	-0.042419216447666636
141	0x3fba97058eeb8138	0.10386690844780311
142	0xbf814dc70694b0d8	-0.00844912995179252
143	0xbfab4126cd81f193	-0.05323144205701449
144	0x3fa1ca1e6efe4298	0.03474516968629365
145	0x3fa458b40005a390	0.03973925113934407
146	0x3f98759822285b90	0.023886086544816332
147	0xbfaab75289169e98	-0.05217988894883979
148	0x3fadd91203b120e0	0.05829674048487887
149	0x3f7c6304126cf950	0.0069303664266143344
150	0xbfb91eb36961bb74	-0.09812470743939433
151	0xbfb2180fcc3a0906	-0.07067965255740569
152	0xbf74b8d2cf6536c0	-0.0050590739031812215
153	0xbfb71d81200af7e4	-0.09029395134254475
154	0xbfb69b480943ffe9	-0.08830690599643244
155	0x3f8131e411b7c520	0.008395940581041261
156	0xbfa30f4814a79668	-0.03722596408969708
157	0x3fb9d8891d9fdbec	0.10096032117131387
158	0xbfa479efbef31dde	-0.03999280172279972
159	0xbfb4ef27b69caca6	-0.08177421768475543
160	0xbfb791b51d46a9bf	-0.0920670696711232
161	0xbfbb4ff332b678f7	-0.10668869007210789
162	0x3fb169ee215b5f38	0.06802261652353259
163	0xbfb02680fa27c836	-0.06308752162274875
164	0xbf805aa1be871008	-0.007985366465511859
165	0xbfaba1b201bb0df0	-0.053968012534394094
166	0x3fa0c400e7c2f8d0	0.03274538830872731
167	0xbfaeffa8f527ecba	-0.06054428093553939
168	0x3fbd17d0681eab3e	0.11364462415683094
169	0x3fb3bd19b235eb8e	0.07710419274182653
170	0xbfa65d2f6d76af82	-0.0436796971438005
171	0xbfb1a23c8680bde6	-0.06888178142320775
172	0xbfa299487da78990	-0.03632570775859556
173	0x3fb711c8e5d6722e	0.09011512385627249
174	0xbf9d8686b5c39b90	-0.028833489269256385
175	0xbfa0955b0dada5c0	-0.03238949338885844
176	0x3f7f46bb04bb8a50	0.007635813275302342
177	0xbf8ae5c536ca9ca0	-0.013133564695932798
178	0x3fb1b3d94c448570	0.06915052520755238
179	0xbfb312c4aa07b698	-0.07450513030172556
180	0xbfbcff54ce575778	-0.11327104604364802
181	0xbfb5ea14dab0e218	-0.08560304965147514
182	0xbfb6c53cef163dc9	-0.08894711339075125
183	0xbfba19309b002ece	-0.10194686683842777
184	0xbfb8ad6ed5f3c6b9	-0.09639637683337811
185	0xbf91c968b3892c78	-0.01736987682151578
186	0x3fb61bed08f6ed1e	0.08636361569272252
187	0x3f62a49bc76d7680	0.002275757079970131
188	0x3f7d787416ed4e60	0.0071949515102748
189	0x3fb0279927d2af7c	0.06310422155610057
190	0x3f793882ad8448c0	0.00615740819945837
191	0xbfaa79d5d541bd6e	-0.05171077945930845
192	0x3f6e63ffdec69760	0.003709792849082058
193	0xbfa191de2dbcd0cc	-0.0343160086471542
194	0x3f878f4582b942f0	0.011503737499113126
195	0x3f91dfe39685be50	0.017455631315384246
196	0xbf9b3faebc3c8e8c	-0.026610117186591384
197	0xbfae7ce951f239b9	-0.059546748402783796
198	0x3f84aff1d9b8d260	0.010101212937209059
199	0xbfbad5d2c6e29eba	-0.10482518535229249
200	0x3fb51e76391e2e8e	0.08249606031875542
201	0x3fb7d98c3a068762	0.09316326538694633
202	0xbfb02f16bb87c18e	-0.06321851805092235
203	0x3fb14a5d386ef6b6	0.06754095676202607
204	0x3f849032bc6d1670	0.010040661216076802
205	0x3fae6af0938208cc	0.05940963554987064
206	0x3fbc9432e1e16b0e	0.11163633360540023
207	0x3fa2bf2e57e30ce4	0.03661484549368213
208	0xbfa0e294ba974b2a	-0.03297867562982611
209	0x3fb9cf258112d7c8	0.10081705476008473
210	0xbfaa36b73e251120	-0.051198698364290474
211	0xbf9b872df975569c	-0.02688285670350031
212	0xbfaed5d5af93c469	-0.060225179369702904
213	0x3fb1c773cf40840a	0.06944965181220666
214	0x3fbd0226f13e0f58	0.11331408872325477
215	0xbfb433427c02bb84	-0.07890716102222767
216	0x3fae83238c9ba9b0	0.05959426013380964
217	0xbf9f34dc07ede9c4	-0.03047508047482396
218	0xbfb10bd416bd8976	-0.0665867381590369
219	0xbfba1711c8e19398	-0.10191451219868808
220	0xbfaece5dd8bb3cf5	-0.060168202120275106
221	0x3fb8b2d67a6dcd0c	0.09647884835230885
222	0x3f93aed100a37358	0.01922155920407262
223	0xbf9a9273f4319d50	-0.025949298648268837
224	0x3fb64c1e26ffcb7e	0.08709896518830182
225	0xbfb8575039d8536d	-0.09508229648811346
226	0x3fbba1e438ea5366	0.10793901814970538
227	0x3fb5423fad94e652	0.08304212558587068
228	0x3fb84ac57a7c3d06	0.09489092102397842
229	0xbfadb730cb5db126	-0.05803825838560987
230	0x3f949b3dec7bfdd8	0.020123450812205096
231	0xbfb5e043d1c99897	-0.08545326110615502
232	0xbfb4e489289f4c26	-0.08161217920069017
233	0x3fa10914ae2dafac	0.03327240587427069
234	0xbfb3de7a15dca2d5	-0.07761347802864844
235	0xbfb3c10b262167da	-0.07716436081810177
236	0x3fb8323e5cd97ca4	0.09451665655932345
237	0xbfb1621885c23eb8	-0.06790307298274001
238	0x3f99a1a966ee9ba8	0.025030753047441984
239	0xbf9755f620471f74	-0.022788854332048428
240	0xbfb49b726977a498	-0.0804969317902241
241	0xbfb034d1b54ded40	-0.06330595661522853
242	0xbfb2485ea0986b1c	-0.0714167730406356
243	0xbf89432312de73c8	-0.012335084927878173
244	0xbfb6b3d1d0b9dfe8	-0.08868132921077143
245	0xbfab89684e22631f	-0.05378271058834216
246	0xbf5e0de72ecbb040	-0.001834369434784669
247	0x3fa9b8f0509c1d00	0.050239095535340894
248	0x3fba8e13c334dcf4	0.10373042598517995
249	0xbf54603570860700	-0.0012436410780484741
250	0xbf96b009ed5a2ba4	-0.022155909644918773
251	0xbf5eb6011d80a940	-0.001874447907548829
252	0x3fb7d2850e74c9a4	0.0930560264867269
253	0x3fb8dadca95451aa	0.09708956846254205
254	0xbfb2eb493414dfe1	-0.07390267869493485
255	0x3f94dbf1700f7318	0.020370266403790444

W f8 [50, 50]
0	0x3fbf0263f7cda7e0	0.12113022613416957
1	0x3fb6534698df88fc	0.0872081874108836
2	0xbf58bf5314277680	-0.001510459071702469
3	0xbfb95c9c9f205264	-0.09906939396780384
4	0x3fb2241b4f0d2252	0.07086344413722515
5	0xbfb1beb5837e9ce0	-0.06931623897854733
6	0x3fa136526d7398f0	0.03361756883696099
7	0xbfbdc42fd12da9e6	-0.11627482277768983
8	0x3fa9b5f730bba760	0.05021641225705653
9	0x3f35941aa554b800	0.00032926226170360007
10	0x3fb06883e241e8b0	0.06409477495063487
11	0x3fbf3387fbed85e0	0.1218800535257496
12	0x3fb6639f4261531a	0.08745761271104549
13	0x3fb99581395ab2ee	0.09993751192332542
14	0xbfa88a18c0c7d0b6	-0.04792859414365706
15	0x3facbc62d55d78e8	0.05612477163843882
16	0xbfb6db9e06d7dc80	-0.08928859393187061
17	0xbf80920de88f3470	-0.008091076526307556
18	0x3fa28c427a9e1070	0.03622634646220113
19	0xbfc07cc7945d8fd5	-0.12880797142417913
20	0x3fa770ba0ab52634	0.04578191166599446
21	0x3fc0dbd13f8823b4	0.13170829393518846
22	0xbf9e29d995e4c9b4	-0.029456519864831512
23	0x3fbc46323911ace8	0.11044610875403615
24	0xbf9c613450e3f5f0	-0.02771455520359284
25	0xbfbbea5c82a3f8c2	-0.10904482068505941
26	0x3fa88eebda9d919c	0.047965403019392755
27	0x3fc0406d7205a7a4	0.1269661719082339
28	0xbfa8c943207797de	-0.04841050883605623
29	0x3fa9c108ee389e78	0.050300864295704295
30	0x3f8d21f36748ba80	0.014224912251930677
31	0xbf74b883486a4720	-0.00505877764102694
32	0x3fbf28d8e2ee6350	0.12171702900230952
33	0xbfc12791f70ccaa4	-0.13402008593546555
34	0x3fa6ac1b2904f930	0.0442818152973693
35	0xbf83e54cdaab90d0	-0.009714699195179227
36	0x3fa948aca6ca39dc	0.04938258682260585
37	0x3fc1c028c3c0cc28	0.13867673452622964
38	0xbfadb4c6207edd00	-0.0580198206584388
39	0x3fb88bcee6186aa8	0.09588330380976606
40	0xbfbbcbddc645b262	-0.10857950297003918
41	0x3f8eb2be967a51e0	0.014989365546434763
42	0x3fa36926937c56fc	0.03791161108362748
43	0xbfa6bc09d66930c4	-0.04440336935349046
44	0xbfb3996944a5f18a	-0.07655961919767243
45	0xbfb84f47a2185a60	-0.09495971400642977
46	0xbf585127d1594f00	-0.0014841927380943587
47	0xbfb08fd100f81f0c	-0.06469446443236054
48	0xbfc13b718d54d667	-0.13462657357165428
49	0xbfbe68044067d4f0	-0.11877466747667476
50	0xbfc1835ad5cf9a1d	-0.13682113113391461
51	0xbfbd14ef49d24ec8	-0.11360068847926208
52	0x3fb3451cf6afba88	0.07527333281152881
53	0x3fad450fa2e35d64	0.057167519220167745
54	0x3fb65979f11a9aee	0.08730280052496273
55	0xbf8851f49bdbf800	-0.011875067717024734
56	0x3fb66aa90f4d571e	0.08756500838839229
57	0x3fbd2beec8f1a7d8	0.1139516106210573
58	0x3fbd3fd2aeecc4e8	0.11425511141421263
59	0xbfb20b06b582dadd	-0.07048074656891452
60	0x3f9c5e6638870a88	0.027703854751744333
61	0xbfba52499eb8321c	-0.10281810879696035
62	0x3fb0bf541152c4ce	0.06541943953449733
63	0xbfa287edef7ca732	-0.03619330929207222
64	0xbfa7abfc68275f10	-0.04623402377518293
65	0x3fa375d68452ebbc	0.03800840726167773
66	0xbf81641e0c389010	-0.008491739986375563
67	0xbfc0a45403ba0510	-0.13001489812817413
68	0xbf96118d1bfe9990	-0.021551327546740107
69	0xbfbda1f684d06fd2	-0.11575260870489437
70	0x3fb11e7d5eb83af8	0.06687148630610895
71	0x3fa66185553e3d3c	0.04371277490201428
72	0xbfb644ee6bec87de	-0.08698930868970886
73	0xbf53e211813b8400	-0.0012135668702557556
74	0x3fb9f48904f4cbd0	0.1013875615215476
75	0x3fb51b9398645e46	0.08245203466901171
76	0x3f9f29c35f62aaf0	0.030432751366485655
77	0x3f96c7ccb0b004a0	0.022246549877313115
78	0xbfaa7dec81ba5e12	-0.05174197276681637
79	0xbfb4cc45509dc990	-0.08124192445919776
80	0x3fb62bedebec74b6	0.08660780916075592
81	0xbf833051010d6780	-0.009369500012031073
82	0xbfb9a394e65be12b	-0.10015230773922627
83	0xbfada699638dc6b8	-0.05791167583710205
84	0xbfc168b31c0bb232	-0.13600767964762067
85	0x3fab75337c0e24a8	0.053628548520529506
86	0x3fb91103d60575ac	0.0979158780587201
87	0x3fb3a8075f0813c6	0.07678266592127078
88	0xbfb8029be0426cc5	-0.09378980851254244
89	0x3fb9a1081ba4bd3c	0.10011339831247751
90	0xbfc0ae12ac027e8b	-0.13031228445924045
91	0xbfb61fa964ceb4a0	-0.08642061911696652
92	0xbfbb9f791a5fc22e	-0.10790211576364392
93	0x3fa3bc56529e8ffc	0.03854627378976258
94	0xbfa99694526c6558	-0.049976954518750005
95	0x3fa603ee7e2f9bf8	0.04299874582630275
96	0xbf9e183cd04d788c	-0.02938933392885494
97	0x3faf6603d92bfaac	0.06132518793127892
98	0xbf74e4b5868c7620	-0.005100926479625595
99	0xbf9eb2718ecdd374	-0.029977583256783416
100	0xbfba7b73ba6af716	-0.10344622899262065
101	0x3fad1f37dd8458e8	0.05687880114617078
102	0xbfb79e73f566875b	-0.0922615503427812
103	0x3f7823ec9b6c3340	0.005893635031281985
104	0xbfbdc6891f01d8fa	-0.11631066329013953
105	0xbfa4d08824776ac4	-0.0406534714236009
106	0x3f733a2ad776ab60	0.004694144582951448
107	0xbf969884f1522398	-0.022066189984375123
108	0x3fa273103c38648c	0.03603411421881572
109	0xbfa10988c4b87078	-0.03327586556790235
110	0x3fa4f805cab61b5c	0.040954762454069565
111	0xbfc000a34e4b5f17	-0.12501946757287705
112	0xbfa04da9362f81d6	-0.03184250627942091
113	0x3fa616ae69f11f14	0.04314179461704107
114	0xbfb2a710c4b9a436	-0.07286171725139998
115	0xbfb4aa0d5aefe948	-0.08071979017396302
116	0x3fa92ec20cdad104	0.049184860295470784
117	0xbfad8d3301b0bbc6	-0.05771788974413243
118	0x3fa6baa66c316164	0.044392777163639235
119	0xbfa3e8fbc2699d6e	-0.03888689754676987
120	0x3fba48cea1122c2e	0.10267344887158522
121	0xbfbc22e5059e35fa	-0.10990744959982371
122	0x3fc0b99b3243e254	0.13066425279955018
123	0xbfc054c790fa89ad	-0.12758726672207157
124	0x3f68ede8aa94a5c0	0.0030431312813063716
125	0xbfb91438db793d30	-0.09796481474153462
126	0xbfba25e8c3baaaa6	-0.10214094904464818
127	0x3fa47d919eea7624	0.040020514153394054
128	0xbfbc69a199fc9b74	-0.11098680505220476
129	0x3fb7fa218bdc56e8	0.09366044678275964
130	0x3fa50fcd99d34d74	0.04113619330169174
131	0xbfa1c487e5664f6a	-0.034702536347281335
132	0xbfbc639e6dd1737b	-0.11089506322009683
133	0xbf918102d774ac48	-0.017093700790763472
134	0xbfb125c8afb7b214	-0.06698278703670041
135	0xbf966d90f8009988	-0.02190233720480131
136	0x3fb42c1bf2120dd2	0.0787980524055947
137	0x3fb99e80f7fcbcd4	0.10007482580543875
138	0x3fa57545b90f778c	0.04191034206426911
139	0xbfb03c7e351dbf22	-0.0634230498960702
140	0x3f74b04a5b6c5820	0.005050936181552529
141	0x3fbe4f3ddc70d4a0	0.1183966315446292
142	0x3fb61c99f4773d10	0.0863739225235245
143	0x3f8720704a9a8dc0	0.011292340542531032
144	0xbfb353b8bcbe9f88	-0.07549624069235794
145	0xbfbf5f65fbacbd3c	-0.12254941362765676
146	0x3fab0da7e77bc9a8	0.052838561064976475
147	0x3f6e237f3a7ca2c0	0.003679035657018964
148	0xbfb25d1ef6f349c2	-0.07173341301976335
149	0x3fbc46bb50de8320	0.11045428013177316
150	0x3f97b958bdb9a640	0.023167978839785386
151	0xbf6262efe890f640	-0.0022444425308368043
152	0xbfb8141a3397105e	-0.09405673751376883
153	0x3f93696b88bb5ea8	0.0189568330959832
154	0xbfb2d9b11c7547e7	-0.0736342138746121
155	0x3f9ddf8687ae1d68	0.02917299464345771
156	0xbfa5b86446209fe6	-0.04242242198989725
157	0x3fba9d22558d2cf4	0.10396017635973803
158	0x3fb219fa19ff681c	0.07070887694081346
159	0xbfb98239215e2a4f	-0.09964329781193125
160	0x3fb166fc07dc30dc	0.06797766868493532
161	0x3fbbfd8ad9bcf9c0	0.10933749976991347
162	0x3fb2a35b38f71066	0.07280511990308156
163	0xbfc0f4f75f595b57	-0.1324757781573804
164	0x3fb1e4dc5536a03c	0.06989838676838728
165	0xbfbe9bd2313d06da	-0.11956514074429539
166	0xbfa59801e2abaa92	-0.04217534915899991
167	0xbfba83d81d1e8c84	-0.1035742827503317
168	0x3f96fd3b56f06058	0.022450377637227653
169	0x3fba04ee93810038	0.10163775540513675
170	0xbfbf68c443c67cc9	-0.12269236235305238
171	0x3fc005655cc03c8e	0.1251646712193843
172	0xbfba02b01dad7cfc	-0.10160351490548075
173	0xbfbc828e3b0f6610	-0.1113671201886961
174	0xbfb00bd5070c6a47	-0.06268054411013067
175	0xbfb95308e6abe206	-0.09892326003672033
176	0x3faef560885f3450	0.06046582855888316
177	0x3fc06e17afe12b22	0.12835975730771404
178	0xbfa9d6f919884334	-0.0504682391803101
179	0xbfb48bcb7395384c	-0.08025809833381564
180	0x3f85458c8ff09810	0.010386560576147758
181	0xbfb74aaf2956326c	-0.09098334082791276
182	0x3f66e25486955380	0.002793469514168867
183	0xbfb78f4ab3e6ac18	-0.09203020946613127
184	0x3fb2d59dc3d00c36	0.07357202559073603
185	0xbfbfbd821385f5fe	-0.12398541428225227
186	0x3f01b4eb9f003000	3.3772888741706586e-05
187	0xbfc0638e4fc5fd47	-0.12803820510087346
188	0x3fa9017d2258f958	0.048839483683411344
189	0xbfbb5e1e175c9f5e	-0.10690486975056276
190	0x3fb731130b37a81e	0.0905925657640698
191	0xbf9bd69588d5d484	-0.027185760952722862
192	0xbfc07ba9b24795a2	-0.12877389149722968
193	0x3fb80c049f7c2bb2	0.09393338102033402
194	0xbf93ce34e87c9ad8	-0.019341303529610027
195	0x3fb604664ef376aa	0.08600463321223609
196	0xbf6f463dfbbf2000	-0.003817673741625782
197	0xbfb441568a54ea5e	-0.0791219794963722
198	0xbf9c651e754d03d8	-0.027729488286471454
199	0xbfbfe0862515bc31	-0.1245197144069017
200	0xbfc1f4ed2067d204	-0.1402870567541329
201	0xbf845d61bab680b0	-0.009943736563230082
202	0x3fbcab0fb6afb028	0.11198518953432368
203	0xbfb3ec9002bb3e77	-0.07782840792355637
204	0x3fb4240ac75eb280	0.0786749588721225
205	0xbf931f339851c110	-0.01867371194060846
206	0xbf9f547fcdd1fa90	-0.03059577649809825
207	0x3f8a7faf9ad9a4c0	0.012938854134704747
208	0x3fbde970c6f75d18	0.11684326989722071
209	0x3fbc16eeae71e504	0.10972491988095007
210	0xbfacf9cc21bfa7f0	-0.05659330284090902
211	0xbfc21434bb3839bb	-0.14124163762649097
212	0xbfb7b682898d2f5c	-0.09262863023940099
213	0xbfc09f61b02dd616	-0.1298639402627237
214	0xbfbe245509a8f1ee	-0.11774188505018632
215	0xbfc06a2a78e5364c	-0.12823992636769999
216	0x3fa51cf78b24cd90	0.04123662541897055
217	0xbfbc40985e7b81c8	-0.11036064440441529
218	0x3fb3890cee30ff8a	0.0763099748155566
219	0x3fc12dd608ef89d2	0.1342113059645969
220	0xbfb20c751d1d6996	-0.07050258599102785
221	0xbfb404ee35b2971e	-0.07820023356415759
222	0xbf5f124d73d29b00	-0.00189645351137252
223	0x3fa613ff87742754	0.04312132385719161
224	0x3f981391411a1b60	0.02351214370585397
225	0x3face2c8cf579e80	0.05641772776635623
226	0xbfabcb0e0f42fdb6	-0.05428356109905101
227	0xbfb57d59b5eef7b4	-0.08394394580588377
228	0x3fa31d547d77ef24	0.03733314544294178
229	0x3f8ca6ae08570270	0.01398979151679322
230	0xbfbf791a070ea67f	-0.1229416148404656
231	0x3fa70a81e0fc6e80	0.04500203963672522
232	0x3fac20015688f1a4	0.054931680501314945
233	0xbf9afec13ca65384	-0.026362437559857024
234	0xbfb52e1da69a95da	-0.0827349216220549
235	0xbfbc0e6d172c02e8	-0.10959512534828841
236	0x3fac576c8b7b3138	0.05535449221278771
237	0x3fbc86d9d0df54f0	0.11143266057418422
238	0xbfb8f85b09906ec2	-0.09753960593701108
239	0xbfb805562204aa82	-0.09383142786524881
240	0x3fc10446cb97b8d2	0.1329430097679905
241	0x3fbe9240fec02be0	0.11941915721415297
242	0x3fa8bafd114504cc	0.048301609380823146
243	0xbfbdeacb910607ff	-0.11686394014944311
244	0xbfacf8499913c16a	-0.05658178323381231
245	0x3fa825e9295abd14	0.04716423635306391
246	0x3f93ce599ac08440	0.01934185034781799
247	0x3fa49b7909d6f7ac	0.040248663378846444
248	0xbfa07494e49524fe	-0.03213944711985482
249	0x3fa97edbe7b2ff2c	0.04979598239287805
250	0x3fb4884dcdcc2b42	0.08020483278612026
251	0x3fa5bc562db83e4c	0.042452519494074
252	0x3f9706247c54b578	0.022484369362407247
253	0xbf783e5dcc2962e0	-0.005918852230558186
254	0xbfb18c62eeab5f21	-0.06854837729349274
255	0xbfc01375141b0e00	-0.12559379083369038

V f8 [75, 50]
0	0x3fa0468320a93234	0.03178796552365207
1	0x3fab765a0260372c	0.05363732604028679
2	0xbfb4ed666f957cbd	-0.0817474386617389
3	0x3fc000918cc0d182	0.1250173508902997
4	0xbfb827bd824f3e14	-0.09435638839135435
5	0xbfb5919350538b50	-0.08425255499927897
6	0x3f83f491ff75a600	0.00974382458544465
7	0xbfacbc35e10ea82e	-0.05612343189507417
8	0x3fb75500f984f260	0.09114080516605716
9	0x3fb317333f9695f8	0.0745727567906086
10	0xbfafdd7f306ea892	-0.062236761724606585
11	0x3fb06954f2b5f9e0	0.06410723615224567
12	0xbfbb203973e3a476	-0.1059604556973158
13	0x3f811ebc04e84430	0.008359402560957546
14	0x3faeaf37f8ed782c	0.05993056214968848
15	0xbfa99874211477c8	-0.049991253889160314
16	0xbfb20a30e1fac607	-0.07046800152854625
17	0x3fc16e1277377566	0.1361716348755337
18	0x3fc02de3ae739f4c	0.12640043275973267
19	0xbfb31dae31143764	-0.07467163751809164
20	0x3fb824770e8d6ccc	0.09430641274723256
21	0xbf9863adbc7ce770	-0.023817743901623556
22	0x3fbe3300dbffe7cc	0.11796574946484312
23	0x3f962177162f6d00	0.021612034539299607
24	0x3fc028abc0b5cf6a	0.1262411776511912
25	0xbf9b89eb3bc76668	-0.02689330627786149
26	0xbfa24da9578b0aac	-0.03574876016275161
27	0xbfc17b7534a17ece	-0.13658013410439768
28	0xbfb22080f8c17c7d	-0.07080846856250562
29	0xbf988671d19a44ec	-0.023950365465286547
30	0xbf8b9292093c36e0	-0.01346315470393783
31	0x3fc02965323a9bac	0.1262632842310415
32	0x3f94a73c30bc7dd8	0.020169201349856752
33	0xbfa98d9765e61a34	-0.04990838164217273
34	0x3fc030a3e925f18a	0.12648438343229557
35	0x3fb786895b0eb2e0	0.09189661477166622
36	0xbfbe277ad31bb745	-0.11778991369257337
37	0x3fb0e1ce7c484150	0.0659455350326017
38	0x3fb5b3ac6c11333e	0.08477285040244184
39	0xbfb61a17bd7aa69c	-0.08633564353899675
40	0x3fab1eb1dc42405c	0.052968557488498574
41	0x3faa2cac6da37f34	0.05112208212244554
42	0x3fa9925462927810	0.04994453147195099
43	0xbfb21786466cc7b7	-0.07067145556791742
44	0x3f6b6841cf6fa580	0.003345612083184235
45	0x3fbfb4938a8cf818	0.12384912617287147
46	0x3f80093148404710	0.00783003331892787
47	0x3fac0752fbbfe10c	0.05474337885965683
48	0xbf8f149227cf5c60	-0.015175954666046987
49	0xbf933e87684e00b8	-0.01879321645856244
50	0xbf576b16ef27a200	-0.0014293407408506598
51	0xbfaad51d243e1be2	-0.052407179521700945
52	0x3fb94a6da0daed94	0.0987919347489224
53	0x3fa076b873322fbc	0.03215576559259101
54	0xbfaa44f48735d156	-0.05130733633532951
55	0x3f8505d5bc2c2bb0	0.010265035443372955
56	0xbfa5065b5d107d12	-0.04106412421264784
57	0x3fbcaddb90441ff4	0.11202785751459016
58	0xbfa54725494e61ee	-0.04155842323160984
59	0x3faf209964c48c40	0.060795587111237115
60	0xbfc14a10d9671e11	-0.1350728093659517
61	0x3fa7a4ae26eceda8	0.046178285838745226
62	0x3fbdadc4a622e15c	0.11593274169979878
63	0xbf898557f5898ce0	-0.012461363964752115
64	0xbf7926771439f840	-0.0061401988529024565
65	0xbfb5bca003f94863	-0.08490944001212734
66	0xbfb25323c7544834	-0.0715811120647068
67	0x3f9fa8a13443b240	0.03091670876976793
68	0x3fc024fbc2903422	0.12612864494477188
69	0x3fb5fafdb4b5095e	0.08586106931492085
70	0xbf75b571b83148e0	-0.0052999918144271685
71	0xbfbb11415f918383	-0.105732045967228
72	0xbfc192f68f808ef2	-0.1372974587148899
73	0x3fb6e334d0b4c6ee	0.08940439315190549
74	0x3fc093b90479c2be	0.1295081397870685
75	0xbfa5e608db80ada2	-0.042770649714238176
76	0x3fb4af926d71affc	0.08080401584601299
77	0x3fb7a9b8973df2a2	0.09243348781996955
78	0x3f969d9ce2371d90	0.02208562021931254
79	0xbfbf5cd50b9fb9de	-0.12251025708949423
80	0x3fbb3d60ce22e090	0.10640530617354416
81	0x3f8b671d016344a0	0.013380266766406301
82	0x3fb837af0c1862ca	0.09459966702741976
83	0xbfbba033d781321e	-0.1079132462629748
84	0x3f93cbd550a8d538	0.01933224968725719
85	0x3fbb20aed2b702aa	0.10596745151907308
86	0xbfabc1ad49d8cb42	-0.0542120125432093
87	0x3faaede09ef6d2e4	0.05259611072998441
88	0xbfb56ba7b1d4ee82	-0.08367393581004914
89	0xbf836fd0e6f0f0e0	-0.009490615890279164
90	0xbfb0ff794783e227	-0.06639822002387828
91	0xbf81688bdc420810	-0.008500187548865085
92	0x3fb1aaa441868302	0.06901003455869772
93	0xbfba9cab9de584c3	-0.1039531002511636
94	0xbf95c6b7d788eda4	-0.021265862016873208
95	0xbfb5d395c13fc8e4	-0.08525978057858513
96	0x3f9d3681a2df5a30	0.028528237882563257
97	0xbfb6a71da277fb48	-0.08848748413582286
98	0xbfbb3d0a62a54254	-0.1064001551469656
99	0xbfaf599631f3b454	-0.06123036727681411
100	0xbfbc1b340f374137	-0.10979009028892937
101	0x3fc015dc574f44f8	0.12566713584104838
102	0xbfaa377a0576828e	-0.05120450321851876
103	0xbfabe2e921271026	-0.054465565964648285
104	0xbfa9f2941e950118	-0.05067885278049483
105	0x3fb14f4adb995360	0.06761615620901074
106	0x3fbf5af930799728	0.12248189385863084
107	0xbfa2940a65b5d4dc	-0.036285710254483766
108	0xbf8fb884d8c898a0	-0.01548866068430882
109	0x3fa2788120c875f8	0.036075625659787336
110	0x3fb879c598ef6fec	0.09560809119960795
111	0x3fb10f4e4306845a	0.06663979660381028
112	0x3f7acaa19ab9be80	0.006540900485205392
113	0x3fb5680c57cae92a	0.0836188997590496
114	0x3fb395fcf1dd0888	0.07650738625400966
115	0x3fabb4e309d305bc	0.05411443228650678
116	0x3faaea0dd58d7ad8	0.05256694061130468
117	0xbfbf3609c347a48d	-0.12191830651831222
118	0xbfa541820fca2f22	-0.04151541178461417
119	0x3fa1746c156b2628	0.034091355909890375
120	0x3f943280aab6f5a0	0.019723902148816586
121	0xbfbc6046db2e364d	-0.11084406710707491
122	0xbfbc9911d1fb43d9	-0.11171065689565242
123	0x3f81f809dc1cced0	0.008773877172280647
124	0x3fbc6b4a8440902c	0.1110121319657657
125	0x3fb3494da2434c8c	0.07533726893898257
126	0xbfc081f8b69a602c	-0.1289664165130956
127	0x3fb002bccfcfe8aa	0.062541771636378
128	0xbfbd00b9e3e7e67e	-0.1132923299227517
129	0xbfbddf1fa83afa65	-0.11668584687411394
130	0x3fc0cf0f958f4a20	0.13131899645539225
131	0x3fad54ca9809bba8	0.0572875319093023
132	0xbfbd3e3ded867802	-0.11423098610836749
133	0x3fa9d4b923775520	0.050451074199069135
134	0xbfb238c601daa47e	-0.07117879433885041
135	0x3fb53b4ae92d68cc	0.08293598358924043
136	0x3fa77bf0ef819e90	0.045867470966922785
137	0xbfb9a60d9371be46	-0.10019001817431059
138	0x3fc0eaae2f599dde	0.1321618777467241
139	0x3fafdc1107421e94	0.062225849281330486
140	0x3fad143c17f41d10	0.05679500381853064
141	0x3fbc0da82fab7304	0.10958338893710723
142	0x3fb70935e0b9680a	0.08998429047042591
143	0xbfba13d1550fa010	-0.10186489416776134
144	0x3fb7a8f41da93a04	0.09242177700182458
145	0x3fc13fd2bd11bf54	0.13476022941494625
146	0xbf9b9131740f4fc4	-0.02692105551598424
147	0xbfb6039f330f5367	-0.08599276539400834
148	0x3fc1eec94977e636	0.14009967887231917
149	0x3fc0f6aac9be365a	0.13252768374188656
150	0xbf91391397fb561c	-0.01681929221270738
151	0x3fb460d514cf36d4	0.07960254438441022
152	0x3fc1517c510790ba	0.13529924351235484
153	0x3fa2d5dff25f2f64	0.03678798516884177
154	0x3fae2e6f74d7e24c	0.05894802380857253
155	0x3fc11818995b4c34	0.13354785431019567
156	0x3f90e1f7bff004a0	0.01648699864381753
157	0xbfb5d06f129c4fe6	-0.08521169857368668
158	0x3fb8ec8e59b32856	0.09735955896317824
159	0xbfbbd83f427d2316	-0.10876841901075482
160	0x3f3866daf3471200	0.0003723415896071114
161	0xbfa141ff49afcdc6	-0.03370664381500492
162	0xbfb9647d4bc33fc4	-0.0991895971267232
163	0x3f7931034d1d3480	0.006150257964532391
164	0x3fb8302f26bd61c0	0.09448523231311068
165	0xbfb66222df437e4e	-0.08743493986866577
166	0xbf865ac7fb9700e0	-0.010915338864720459
167	0xbfaf9cb262e1d094	-0.06174237687165021
168	0x3fb919caaca825b8	0.09804980006460695
169	0xbf8015ee62f123c0	-0.00785433043906092
170	0xbfa1c2298ec113ea	-0.03468446605305771
171	0x3fbb6e2d9b9bdfa8	0.10714993523640592
172	0x3fa54f2ea6619d84	0.041619737444132304
173	0x3fc0c0f43220e904	0.1308884854095781
174	0xbfb724b238037ef0	-0.09040368907471552
175	0x3fb0a60755ba2ba6	0.06503339617681422
176	0xbf0930e584e90000	-4.80480235762748e-05
177	0xbfbc1f43047b7215	-0.10985201701573317
178	0xbfa1a775eb818e2c	-0.034480748174953696
179	0x3f55b0f983919b80	0.001323932329137384
180	0xbfb446696318abea	-0.07919939679474877
181	0x3fc098bba8ce5fe8	0.12966104261863554
182	0x3fa52975f8809364	0.0413319459769699
183	0x3fc02dd59c869c7c	0.1263987554823166
184	0x3fb0566c544a02ac	0.06381871278609691
185	0x3fc1c47f911aa0c2	0.1388091524615956
186	0xbf4b9c8a67111000	-0.0008426357072797153
187	0x3fa2c4f32535b480	0.03665885762425436
188	0xbf204eb008b13000	-0.0001244153866956088
189	0x3f4e42778fa27100	0.0009234508318232415
190	0x3fadb7855ed7a0c0	0.058040778949192795
191	0xbfb81a65406bc4ef	-0.09415276358392409
192	0xbfa34bc7aa2a940c	-0.037687530061965985
193	0xbfb6849a8b91c200	-0.08796087176757084
194	0x3fa8bbae84356188	0.04830689777253655
195	0xbfa40c24be0569c2	-0.039155147739353705
196	0x3fb373a793d0db96	0.07598349913392463
197	0x3fb75b7c1cf5909c	0.09123969752323763
198	0x3fa62979960af9b0	0.04328517872407944
199	0x3faa54f2fc258230	0.051429360656360834
200	0x3f933f71354cbbb8	0.018796700361402435
201	0xbfb6f0819a29ff12	-0.08960733426829062
202	0x3f78864bab9a79e0	0.005987449252329274
203	0xbfaf3a91c9a50940	-0.06099372469408815
204	0xbfb58027d8edd57a	-0.08398675008887393
205	0xbfbd95764750f53a	-0.11556185952300249
206	0x3fb94e0a9527ddfe	0.09884706632134763
207	0xbfbfd3da16ae4bb4	-0.12432635358554373
208	0xbfc02ad962bed1ce	-0.12630765267898741
209	0x3fbdcfa95597e184	0.11644991244964414
210	0xbf979985c6789e60	-0.023046579588621774
211	0xbfb6cefeadbd67a6	-0.08909599057861203
212	0x3fbd45a98b2d9dd0	0.11434421203522693
213	0x3fc046e44d647a2c	0.12716344622545372
214	0x3fb7e464f88267d6	0.09332877223133038
215	0x3f70129c7f02b960	0.003923999131229955
216	0xbfb28fbcd026f856	-0.07250576097337222
217	0x3f9e6c8d92a92628	0.029710971905194367
218	0xbfa98f4ef9c5c3aa	-0.04992148207646292
219	0xbfc0761f347adb42	-0.12860479414458764
220	0x3fb45c7cea65ae6a	0.07953625414455137
221	0x3fabddf86d35d754	0.05442787488111259
222	0xbfb4bfbc4f8675e0	-0.08105065290006719
223	0x3fbd817d41595ebc	0.11525709958493285
224	0x3fbfb2af7e331824	0.12382027464909179
225	0xbfbc3b41859ea1da	-0.11027917396734868
226	0x3fbd85af6f4e29e4	0.11532112567343905
227	0xbfc094bf8eb006fb	-0.12953943698089873
228	0xbfa80ad938d111ae	-0.046957767663602254
229	0x3fa8e80d6819acd4	0.0486454190803102
230	0xbfb4d62f210d2ed4	-0.08139318997308048
231	0x3f92ff0beb927470	0.018551050427607796
232	0xbfb69883a08ae76d	-0.08826468152520102
233	0xbfb0f791744f7bf6	-0.06627759065257507
234	0xbfa46b8a1ca3dda2	-0.03988296126947978
235	0xbfa98258b115427a	-0.04982258950861236
236	0x3fb3f6f8d0712c74	0.07798724259298401
237	0x3f5f5f39f3a4ca80	0.0019147935805220728
238	0x3fa7dff01f5f9d78	0.04663038619019749
239	0x3fa5a88fc1874a50	0.04230164754303145
240	0x3f91a7b55b0f5e10	0.017241319353926754
241	0x3f94a6be45271bd0	0.02016732499194146
242	0x3faf0b5c25d81860	0.06063354455913905
243	0x3fb3ad7ec6b3636a	0.07686607695667438
244	0x3fc0421a8a01cdac	0.12701732386231634
245	0x3fc0a892fdc9aaa8	0.13014447586040956
246	0x3f87b8b2082a8100	0.01158274733944653
247	0xbf86d80d036b0720	-0.011154271761714407
248	0x3fb6324b02d6c77c	0.08670491046248502
249	0xbfba4f62af0d9948	-0.10277382634885612
250	0xbfa84db165fdf180	-0.04746775026339645
251	0x3fa90b5248436398	0.0489145005428277
252	0xbf43f66606744100	-0.0006092069787957677
253	0x3fbc35abb716e380	0.110193950843394
254	0xbfb05182c7673691	-0.0637437569450532
255	0xbfb4ace03bddf478	-0.08076287709805452
